handout/test_data/attention_test.pt (torch, 311070 bytes, 11 tensors)

sequence f4 [2, 10, 256]
00000000: 882e b43d 7cc0 053e ba06 7f3f ab9c 6a3f
00000010: 621b 123f 5b2a 5a3f 4b9e 073f 8ad6 803e
00000020: 2e2c c83e 53f4 343f da3b c43e 4000 633f
00000030: a08b b33c ede0 0f3f fc04 053e 54a0 093f
00000040: f21b 883e f588 053f 1ad5 0b3f bc5c 0e3e
00000050: 1e6a 6e3f 3c71 143f 2862 333e 72d3 563f
00000060: 1e19 8b3e eb68 493f 0edf cd3e 921d 673f
00000070: c081 013d c053 773c 4f05 483f f6c3 743f
00000080: b4e2 263f 2a15 873e 8858 9a3e c052 603c
00000090: ec76 5a3f cf6e 283f 6b79 143f c875 e43e
000000a0: 1401 493e b868 843e 58bc e63d 2ea2 c13e
000000b0: 669e 423f f3ff 7e3f 7893 233f dcf8 d33e
000000c0: a668 553f f0a8 b73e 4925 133f d56f 6b3f
000000d0: d6b7 993e cd75 1d3f 5268 443f a8bb 4b3e
000000e0: d4fb 9d3e 8898 0e3f 89e4 203f 4a91 3f3f
000000f0: 55d4 213f 5259 e13e f76c 363f fcb1 793f
00000100: 101a 713f 195f 3d3f e017 493e d23e d53e
00000110: 92d1 cb3e 9c8d 283e afe6 223f ee1c 5b3f
00000120: e518 023f 8e5b 2c3f 0884 043f a809 393f
00000130: 3207 f03e ef98 083f 6a76 3d3f 77de 043f
00000140: 205f 3a3d f266 d23e 2a56 7b3f fb33 013f
00000150: 5fbe 343f 0a58 c83e 204c 433d 30a1 c03d
00000160: 3117 633f c84f 153f 08c8 743f 6a37 333f
00000170: b081 763f 8e66 a03e aedd b33e 8cdf c33e
00000180: 1ada 433f 3063 b23e 1852 ac3e ce45 563f
00000190: f352 0f3f 8c57 e63e 4efb b13e 4e25 0b3f
000001a0: 9093 8e3e 9284 203f bd23 633f c60a d83e
000001b0: bd5f 173f b0c6 1c3e b438 683e 5611 c53e
000001c0: 0cb6 cf3e a2c5 b53e a0ad 5c3f d435 a43e
000001d0: 4c42 5c3e 84ae f63e 105c 1a3e 3465 043f
000001e0: c0cb d63c 5100 043f c00f d43d ac75 283f
000001f0: 7bc4 3e3f 54ac 833e 5aff 263f 00ec 583a
00000200: 52d6 ba3e aaa6 133f c3a9 243f 7f35 053f
00000210: 148c 763f 42b3 1b3f 2b92 463f a26c ee3e
00000220: c277 2c3f 505b d93d 5c3c 423e 2086 ae3d
00000230: 80b0 b33e e8af 703f bcbe 4f3e 88d5 cc3d
00000240: 4d08 623f 1e1f 683f 7e04 843e a076 863c
00000250: b7dd 2e3f 64b7 c93e d3cb 6e3f 18a1 3a3e
00000260: 5364 6a3f c0be ee3c 9cb5 153e acd4 143f
00000270: 1c5c be3e 36b6 873e 6d48 5e3f c3d9 773f
00000280: 883f 453f 0de5 733f 1b4f 193f 2b64 293f
00000290: 6c6d be3e e630 8f3e 0098 c63d 2012 533d
000002a0: ad20 6a3f 5f8b 013f 643f b53e 1432 fc3e
000002b0: a434 433f f99a 253f 5463 1c3e 84bd 0f3e
000002c0: 98af 843d d0a2 af3e 3c7b 063e 70ae 1e3d
000002d0: fc23 1c3e 0818 1c3f 1071 213f 5089 4e3f
000002e0: 0014 db3d 0cd8 633e e673 133f 94e7 db3e
000002f0: 3dba 413f 8422 d03e d8ae c73d 7b86 593f
00000300: 80c2 7c3e 5249 8c3e 44a6 d13e f61e cf3e
00000310: 5ae5 ea3e bedb 963e e604 a23e 1a0d ad3e
00000320: e20c d23e c44b 033f e629 703f d2c8 843e
00000330: b034 233f 2675 b73e 090c 3a3f 4a1e ba3e
00000340: e908 003f bca1 713e 1435 143f 44b6 0b3e
00000350: 8ffb 693f 0265 b83e 60d2 713e b6f7 513f
00000360: 1da4 703f e1d0 763f d074 633e 44a1 7e3e
00000370: 7fff 283f 4462 693e 5aa7 233f 057d 233f
00000380: cef6 d63e c2da c93e a9ce 023f 7a30 a83e
00000390: 1842 4c3e 64a8 ab3e 59e1 1a3f 804a 833c
000003a0: 1ecc 093f 7204 fa3e a67a 023f ca73 ee3e
000003b0: d617 583f 1238 0c3f 895e 583f 60d3 d03c
000003c0: f04e 033f 01fb 183f 7cbe 103f e9f3 353f
000003d0: 5549 593f 9271 c93e 7d46 783f 3400 293e
000003e0: 16ad f93e ecda 193e a823 f23e ec6a 1b3e
000003f0: 95b5 0e3f 34ac 263f 5297 fe3e 3f69 213f
0.08797938 0.13061708 0.9961964 0.91645306 0.5707303 0.8522088 0.5297591 0.2516368
0.39096206 0.7068531 0.38326913 0.88672256 0.021917164 0.56202585 0.12990183 0.53760266
0.2658382 0.52162105 0.5462204 0.13902563 0.9313067 0.5798528 0.17517912 0.8391639
0.271676 0.7867572 0.4020924 0.90279496 0.03161788 0.015095651 0.781331 0.9561151
0.6518967 0.26383334 0.3014567 0.013691604 0.8533771 0.6579408 0.5799777 0.4462111
0.19629318 0.25861144 0.112663925 0.37819046 0.76022947 0.996093 0.63896894 0.41400802
0.83362806 0.35871077 0.5747877 0.9196752 0.30023068 0.61507875 0.7672168 0.19895804
0.30856192 0.55701494 0.62848717 0.7483107 0.6321462 0.44013458 0.7126002 0.9753721
0.94180393 0.7397323 0.19638014 0.4164949 0.39808327 0.1646027 0.63633245 0.8559102
0.50819236 0.673272 0.51763964 0.7228036 0.4688049 0.5335836 0.7400881 0.51901954
0.045500875 0.41094166 0.9817835 0.5046994 0.70602983 0.39129668 0.04768002 0.09405744
0.8870726 0.5832486 0.95617723 0.7000643 0.9629164 0.31328243 0.35130066 0.3825649
0.7650467 0.348413 0.33656383 0.83700264 0.55985945 0.44988668 0.34762043 0.543538
0.27846956 0.62702286 0.8872641 0.4219572 0.5913046 0.15310168 0.2267788 0.3848979
0.40568578 0.35502344 0.8620243 0.32072318 0.21509665 0.4818002 0.15074182 0.51716924
0.026220202 0.5156298 0.103545666 0.65804553 0.74518555 0.25717413 0.65233386 0.0008274913
0.36491638 0.57676184 0.64321536 0.52034754 0.9630749 0.608204 0.77566785 0.46567255
0.67370236 0.106131196 0.18968338 0.08521676 0.35095596 0.9401841 0.20287603 0.10001665
0.88293916 0.9067248 0.25784677 0.016413987 0.6830706 0.39397728 0.9327976 0.18225515
0.9155933 0.029143691 0.1462006 0.5813701 0.3717965 0.26506203 0.8682926 0.96816653
0.77050066 0.9527138 0.5988633 0.6616847 0.37192857 0.27966994 0.096969604 0.051530957
0.9145611 0.5060329 0.35399926 0.49256957 0.762522 0.64689595 0.15272266 0.14037138
0.06478804 0.34303904 0.13132948 0.038740575 0.15248102 0.6097417 0.63063145 0.8067827
0.10697174 0.22250384 0.5759872 0.42950118 0.756748 0.40651333 0.09750146 0.84970826
0.24683571 0.2739969 0.40947163 0.4045331 0.45878106 0.29464525 0.31644362 0.33799058
0.41025454 0.51287484 0.9381393 0.25934464 0.6375227 0.35831565 0.72674614 0.36351234
0.50013596 0.23596853 0.5789349 0.13643748 0.9139947 0.36014563 0.23615408 0.820186
0.94000417 0.96412474 0.22212529 0.24866205 0.66014856 0.22791392 0.63927233 0.6386264
0.41985172 0.3942471 0.5109659 0.32849485 0.19947088 0.3352691 0.60500103 0.016026735
0.53827083 0.48831517 0.50968397 0.46572715 0.8441137 0.54773057 0.8451925 0.025491416
0.51292324 0.59758 0.56540656 0.710753 0.8487752 0.3934446 0.96982557 0.16503984
0.48764867 0.15024918 0.4729283 0.15177506 0.5574582 0.6510651 0.49724823 0.6305122

query_weight f4 [64, 256]
00000000: a2a4 1d3d 14fe 063d 7cf1 7c3d 88bf 4ebd
00000010: 7c54 f4bc c42a e2bc ee83 393d 300f 6fbc
00000020: 8cf6 c13c c0b1 91ba d090 66bd c21f 193d
00000030: 80f0 84bb 2862 5c3d 044c aa3c 8044 203d
00000040: 505a 21bd 86ac 72bd 2056 41bb e607 4bbd
00000050: 0477 55bd 00d6 72bb 4c57 fb3c 8435 31bd
00000060: 6873 72bd 34b3 543d 949b 3bbd 2874 1f3d
00000070: e05b c4bb 98e6 54bd 80e8 3b3d 501e 46bc
00000080: 3061 d73b 604f 18bc d275 043d 74ad 393d
00000090: 5aeb 6d3d 9219 503d 687e 1a3d 4665 523d
000000a0: b261 28bd 808b e3bc 6ce9 253d 80f8 7c3c
000000b0: 4c46 00bd 68ce 55bc a0a7 983b e6fd 01bd
000000c0: 8ec9 1b3d 666d 2d3d 7ca5 fc3c 405d 98bb
000000d0: ecce 1dbd 14ba 313d 58bd 7dbd dac5 5f3d
000000e0: ca7d 4fbd 8a40 01bd ec7a 5bbd 0051 21bd
000000f0: 30ee e4bb b6dc 0abd d8e0 273c dcee 50bd
00000100: b871 a13c 7863 f53c 0055 75bc b05f fd3c
00000110: f48b 1f3d 1e91 193d a0be 083b a07d 5c3d
00000120: fafc 763d 3255 283d 20e6 9a3b 3039 cb3b
00000130: 38d2 283c e695 463d 3c1d d2bc f464 a7bc
00000140: 6ad2 3e3d a039 b9bc 2884 60bd f2fd 34bd
00000150: 2ee0 3cbd e0f1 cebb c6b4 3c3d e0be 66bb
00000160: 0848 943c 7007 48bd 0a81 17bd f032 593d
00000170: 8084 60bd da97 043d 9816 05bd fe52 313d
00000180: 4685 47bd 1866 babc a056 7abb 58b0 ab3c
00000190: 1024 6d3c 0855 3bbd a8f7 303d c6a1 11bd
000001a0: a0ea a23c 5c89 48bd 28e3 2e3d a456 3cbd
000001b0: c0bb 27bb 9050 e53b 82f4 49bd be54 4fbd
000001c0: 44ab 5dbd 04d1 70bd aa2e 61bd 406e 04bb
000001d0: 40fd 2f3d 140f 60bd 407f 72bc 705d dabb
000001e0: a0db 033d 602a 103d 989e 1cbc ca4a 2ebd
000001f0: a0ef b7bc 6c33 66bd 8849 18bc fcb0 e23c
00000200: e81a 263c b076 9c3c f065 423d f038 c6bb
00000210: bc95 4c3d ce1f 3fbd 206c 013b 90df 49bd
00000220: d059 75bd 2809 153c 0018 3bbc b480 10bd
00000230: 5893 7ebc a045 9c3b 727b 083d 5666 75bd
00000240: 78ad e8bc ee2c 41bd 102d 56bc 9861 7f3d
00000250: e45d 26bd c08f 2b3c e4f9 913c 2cda 6ebd
00000260: 8611 763d 8291 453d 30da c63c 90b3 e53b
00000270: 50b5 6b3c 5c74 0dbd 2cd6 4f3d 5cdd b7bc
00000280: 24ce ef3c 8025 b73c 8037 febc cea7 7f3d
00000290: b003 2ebd 98df a0bc 24bb e1bc 483a 02bc
000002a0: e000 c2bb 602a 2fbb aa19 56bd a810 babc
000002b0: c03d abbb 04f6 1b3d 308e 893b 6ee8 2e3d
000002c0: 1034 2a3d d8b0 ca3c 6486 cfbc bcaa 9fbc
000002d0: 00f3 12bc 64ec ca3c ccd7 1a3d 2467 ffbc
000002e0: dc6f 213d 881b 1c3d cc72 30bd 5085 a53c
000002f0: e04f 0bbb 54c4 03bd d8da 6abc 865b 58bd
00000300: 8444 b5bc eae8 443d c888 1c3d fcb4 a13c
00000310: ac49 d2bc 86ea 47bd 801c 7cbc 70ed 473d
00000320: 12f1 063d 604b 30bd 8048 68bd b8af 7cbc
00000330: 740e fdbc ee4d 50bd 7a8f 37bd 282a 14bd
00000340: ac1e eabc b241 103d 38c5 483d 4250 793d
00000350: a646 54bd 0415 60bd 50b8 d1bc 74d5 903c
00000360: 34b3 193d c0f5 c03a e054 f93c 0019 163a
00000370: 4091 8abb 6c8f 363d 1253 0d3d 0ef1 473d
00000380: be4a 403d 7016 edbc 80f5 81bc c01f debc
00000390: ec07 4abd d67f 03bd c43e 7abd 4012 a03c
000003a0: 8057 bfbb a028 d93b 9c43 1a3d e0b1 3a3d
000003b0: d8e1 bcbc e825 46bc fa90 673d d4cf 97bc
000003c0: 28ab 2abc 20ea 39bd 149f a1bc f464 fdbc
000003d0: a83e 7d3d 361f 543d a8a8 f83c ec40 5bbd
000003e0: 067a 113d a82d aa3c 9c0c 073d 7c6d c73c
000003f0: f431 923c a067 3a3d d895 46bd de33 573d
0.038487084 0.03295715 0.061753735 -0.050475627 -0.029825442 -0.027608283 0.045291834 -0.014591023
0.023677133 -0.0011115596 -0.056290448 0.037383802 -0.00405699 0.053804547 0.0207882 0.039127827
-0.03939277 -0.059246562 -0.0029500797 -0.04956808 -0.052115455 -0.0037053823 0.030681275 -0.043263927
-0.05919209 0.051928714 -0.045802668 0.038929135 -0.0059923977 -0.051977724 0.045876026 -0.012092188
0.006572865 -0.009296268 0.032338925 0.045331433 0.058085777 0.050805636 0.037718207 0.051366113
-0.041108795 -0.02777648 0.04050581 0.015440106 -0.03131704 -0.013049699 0.0046586543 -0.031736277
0.038034014 0.04234066 0.030840628 -0.004649788 -0.038527414 0.04339035 -0.06194815 0.054632045
-0.05065707 -0.03155569 -0.053584024 -0.03938389 -0.006986402 -0.033901893 0.010246478 -0.051009044
0.019707546 0.029954657 -0.014973879 0.030929416 0.03895183 0.03749191 0.0020865574 0.053830743
0.06029985 0.041096874 0.00472714 0.0062018856 0.010304026 0.048482798 -0.025648706 -0.02043388
0.046587385 -0.022610486 -0.054813534 -0.044187494 -0.046112232 -0.006315455 0.046070836 -0.0035208985
0.018100753 -0.048835218 -0.036988296 0.053027093 -0.05481386 0.03237138 -0.03249225 0.04329204
-0.048711084 -0.02275376 -0.0038198605 0.02095811 0.01447393 -0.04573539 0.043204933 -0.03555467
0.019887269 -0.04895912 0.0426971 -0.045981064 -0.0025594085 0.006998129 -0.049305446 -0.050617926
-0.05411841 -0.058793083 -0.054976143 -0.0020207316 0.042966127 -0.05470188 -0.014800847 -0.0066639706
0.032191873 0.035196662 -0.009559296 -0.042551793 -0.02245313 -0.056201383 -0.009294875 0.027672283
0.010138251 0.019099563 0.047460496 -0.006049268 0.049947485 -0.04666119 0.0019748285 -0.04928547
-0.059900105 0.009096421 -0.011419296 -0.03527899 -0.015538059 0.004769042 0.03332085 -0.05991205
-0.028403029 -0.04716199 -0.013072267 0.062348932 -0.040616885 0.010471284 0.017819352 -0.058313534
0.060075305 0.04823447 0.024273962 0.007009931 0.01438649 -0.034534797 0.05074136 -0.02244442
0.0292731 0.022356749 -0.031032324 0.06241589 -0.042483985 -0.019637868 -0.027555056 -0.007948466
-0.0059205145 -0.0026728138 -0.05227057 -0.02271302 -0.005225867 0.038076416 0.0041978583 0.04270213
0.041553557 0.024742529 -0.025332637 -0.019490592 -0.0089690685 0.024770923 0.037803456 -0.031177111
0.039413318 0.038112193 -0.04307823 0.02020517 -0.0021257326 -0.032169655 -0.014334403 -0.05282166
-0.022127397 0.048073687 0.038216382 0.01973962 -0.025669895 -0.048807643 -0.015387654 0.048810422
0.032944746 -0.043040633 -0.056709766 -0.015422754 -0.03089068 -0.05085557 -0.044814564 -0.036173016
-0.028579079 0.035218902 0.049016207 0.060867555 -0.051825188 -0.054707542 -0.025600582 0.017679907
0.037524417 0.0014721677 0.03043598 0.0005725771 -0.004228741 0.04457037 0.03450305 0.048813872
0.04694628 -0.028941363 -0.015864134 -0.027114749 -0.04932396 -0.032104336 -0.061095014 0.019539952
-0.0058392882 0.0066271573 0.037662134 0.04557979 -0.02305691 -0.0120939985 0.056534745 -0.018531717
-0.010416783 -0.045389295 -0.019729175 -0.030931927 0.06182733 0.051787578 0.030353859 -0.05352871
0.03551676 0.020773724 0.03297101 0.024344198 0.017846085 0.04550898 -0.048482746 0.0525397

key_weight f4 [64, 256]
00000000: a05c 9abb 30e0 fa3c 48dd 5dbd 36a4 32bd
00000010: e877 5e3c 9891 e93c a090 a6bc e0b1 683d
00000020: 00f7 b4b9 4810 fb3c 5841 443c c04c 553b
00000030: 40c5 303d f021 613c f4ee 033d 10a6 d7bc
00000040: 74ef 8f3c 0645 043d bee4 11bd d07a d83c
00000050: c0dc a63b 1229 76bd 6880 fcbc 80f8 e9ba
00000060: 9e40 25bd e04f c03b 2ea5 4f3d dc27 d93c
00000070: a0ad 173d 406c 1cbd 300c 12bd ec91 df3c
00000080: 28b0 1c3c 1004 5b3d 40a1 8a3b d8ef 18bd
00000090: 10fa 74bd e857 5bbc 3215 33bd fc08 a8bc
000000a0: 82fd 633d 2099 723c 3a14 3b3d 0463 e33c
000000b0: 2c7d 6d3d 8806 bcbc b45d 033d 2820 94bc
000000c0: 48bb 33bc a6ca 3b3d a0fe 93bc 547d 3b3d
000000d0: 1853 4bbc 8028 af3c bcf5 e7bc 4e1b 763d
000000e0: c0d4 22bb ee2a 00bd 646c 91bc a04f 763d
000000f0: 5018 76bc 82b9 79bd a0d7 00bc 04c3 cdbc
00000100: 0825 4abd dce1 6bbd 8efa 633d bec3 3fbd
00000110: 38d8 ebbc 4063 253c 782a 5abc e0a5 5e3d
00000120: bc8d 493d 50b4 d8bb f062 9d3c 4866 143c
00000130: d223 783d 803a 7b3c 2484 f1bc 6c4e 2dbd
00000140: ec47 973c 1841 0cbc a05f 73bc 4084 6ebd
00000150: 88fd 1f3c e005 75bb 1412 89bc f0cf 563c
00000160: 185c 6dbd 349f 973c 76df 4f3d 605f ed3c
00000170: 00cf 03bd a4a7 34bd 28bc 3ebd 2ca0 6f3d
00000180: 40b2 5c3c 9483 643d 645f a2bc 00db f43a
00000190: 64a4 89bc 7cf1 72bd 8083 debb 506b e7bc
000001a0: 403b 223c 10e5 cfbb dc19 45bd 7418 b73c
000001b0: 808e 9dbb 1007 fd3c 4c72 f9bc 0465 3bbd
000001c0: 6ce2 3f3d 2c12 aebc ac80 00bd 406c 673b
000001d0: 5076 953c 98da 82bc 588d 27bc f435 c63c
000001e0: f00c acbb 0093 fa3a 70d7 aabc ca9c 5f3d
000001f0: c00f 733c 9ceb 473d 70e8 e3bc 663a 12bd
00000200: f498 7ebd 9008 35bd 22f8 663d 2ce2 003d
00000210: 9677 123d 7492 ef3c 543e 913c 2067 eabc
00000220: 1c33 753d c0e0 333d e0d6 11bb 008c 393a
00000230: 64b8 9fbc e012 14bb 5ab8 30bd 28b4 2ebc
00000240: 243f d5bc 26f4 733d b6c6 163d d84b ad3c
00000250: 4098 21bb 9e0e 74bd 644d d0bc c0ef bdba
00000260: b23d 38bd 809d 053d 00aa 9139 88dd d5bc
00000270: c8e6 5bbc 986f 20bd 186a 0d3d b4cf 1f3d
00000280: 4013 5f3d 063d 57bd c461 ed3c f8e3 5bbc
00000290: c636 0dbd 38d2 b53c 7ade 60bd 40e6 db3c
000002a0: d88c 4a3d 70ec d2bb 943f 55bd 0e8d 2b3d
000002b0: 7034 703d e8e7 a5bc e8ed 44bc a044 683b
000002c0: 68ee 9cbc 541e 2cbd 44ef 793d f03a a83b
000002d0: b677 453d c8a9 9f3c c673 45bd 2404 353d
000002e0: 10ea fb3c 2e47 1abd 92b1 3e3d 84cb 243d
000002f0: ac5e 60bd 2cce 0cbd fe0e 2ebd 6a87 57bd
00000300: 6049 543d 605f 5cbc 2620 133d 806c 283d
00000310: 404a 90bb e05d 0f3d 9ecf 663d 805a 4eba
00000320: dc7a 023d a458 573d 1cc2 143d 2093 61bd
00000330: 6026 9fbc 3e98 7d3d 50f8 e1bc 7022 74bc
00000340: f02c ccbc bca0 fb3c 96d6 3c3d 5ab0 233d
00000350: 905a 5d3d 5cdd 563d 9066 95bc f03e 2d3c
00000360: 5021 eb3c 2c5b ca3c 1490 cf3c 9086 32bc
00000370: a881 f53c 96d8 2c3d 30da 36bc 9865 403d
00000380: 6e58 16bd 6a86 24bd 8825 39bc d013 e5bc
00000390: 3043 403c d452 5abd a0d2 45bb 289b 69bd
000003a0: 405d bebc ae65 7b3d 4c3a 75bd 007a 40bb
000003b0: 0c4d 7f3d 1822 f8bc c0fc 283c 7060 c7bc
000003c0: 08ca 303d ac12 f63c 3ceb 8f3c 9000 d2bc
000003d0: 9093 6a3d 5434 5dbd 2038 bdbc bcba 9dbc
000003e0: 409c eeba 30c2 69bc 9e99 11bd 7290 2d3d
000003f0: 604d 3bbb 6cdc 753d b4bc ff3c f0fa 11bc
-0.004710749 0.030624479 -0.05416611 -0.043613635 0.013578393 0.028511807 -0.020332634 0.05681026
-0.00034516305 0.030647412 0.01197847 0.0032546967 0.043156862 0.0137410015 0.032210305 -0.026324302
0.017570235 0.03229239 -0.035618536 0.026425749 0.0050922334 -0.06009776 -0.030822948 -0.0017850548
-0.040344827 0.005868897 0.050694637 0.026508264 0.037030816 -0.038189173 -0.035656154 0.02729126
0.009563483 0.05347067 0.0042306483 -0.037338108 -0.05980879 -0.013387658 -0.043721385 -0.020512097
0.055661686 0.014807016 0.045673586 0.027757175 0.0579807 -0.022952333 0.032071784 -0.01808174
-0.010969944 0.045847557 -0.01806575 0.04577382 -0.012409948 0.021381617 -0.028315417 0.060084634
-0.0024846047 -0.03129094 -0.01775188 0.06013453 -0.015020445 -0.06096793 -0.007863909 -0.025117405
-0.049351722 -0.057588443 0.05565887 -0.046817534 -0.028789625 0.010094464 -0.013315789 0.05435741
0.049207434 -0.006613292 0.019212216 0.009057589 0.060581036 0.015333772 -0.029481955 -0.042311117
0.018466912 -0.008560441 -0.014854342 -0.058231592 0.009765036 -0.0037387535 -0.016732253 0.0131111
-0.057949156 0.018508531 0.05075022 0.028976142 -0.032179832 -0.044105187 -0.04656616 0.05850236
0.0134702325 0.055789545 -0.019820876 0.001868099 -0.01680202 -0.05931233 -0.0067905784 -0.028249413
0.009901822 -0.006344445 -0.048120365 0.022350527 -0.004808247 0.030887157 -0.030450009 -0.045750633
0.046846792 -0.0212489 -0.03137271 0.0035312325 0.018244892 -0.015973374 -0.01022657 0.024195649
-0.0052505657 0.0019117296 -0.020854682 0.054592885 0.014835298 0.04880868 -0.027820796 -0.035700224
-0.062157586 -0.04419762 0.05638898 0.031465694 0.035758577 0.029244639 0.017729916 -0.028613627
0.059863195 0.04391551 -0.002225332 0.00070780516 -0.019497104 -0.0022594258 -0.04314456 -0.01066307
-0.026031084 0.05955901 0.0368106 0.02115433 -0.0024657398 -0.059584253 -0.025427528 -0.0014491007
-0.044980712 0.032620907 0.00027783215 -0.02610661 -0.013421722 -0.039168924 0.034525007 0.03901644
0.054461718 -0.05254843 0.028977282 -0.013421051 -0.034476064 0.022194967 -0.05489967 0.02684319
0.049450725 -0.006436877 -0.052062586 0.041882567 0.05864376 -0.020252183 -0.012019612 0.0035441294
-0.01915665 -0.04202111 0.061019197 0.005133979 0.04820987 0.019490138 -0.048206113 0.044193402
0.030751258 -0.03766554 0.046556063 0.04023315 -0.054777786 -0.03437631 -0.042494766 -0.052619375
0.05182779 -0.013450474 0.03591933 0.0411191 -0.0044033825 0.035001636 0.056350343 -0.0007871762
0.03185545 0.05257477 0.03631793 -0.05507195 -0.019427478 0.061912768 -0.027584225 -0.014900789
-0.024923772 0.030716293 0.046103083 0.039963104 0.054041445 0.0524572 -0.018237382 0.0105740875
0.028702408 0.024701677 0.025337256 -0.01089634 0.029969051 0.04219874 -0.011160418 0.046971887
-0.036705427 -0.04016725 -0.011300452 -0.027963549 0.011734769 -0.053301647 -0.0030185357 -0.057032734
-0.023237824 0.061376266 -0.05987005 -0.0029369593 0.062329337 -0.030289695 0.010314167 -0.024337977
0.043161422 0.0300382 0.017568223 -0.025635034 0.057269633 -0.054004982 -0.023098052 -0.019254081
-0.0018204525 -0.014267489 -0.03554689 0.042374082 -0.0028580055 0.060024664 0.03121791 -0.008909926

value_weight f4 [64, 256]
00000000: 70bb fb3b 9ad7 0dbd b091 95bc 483a c0bc
00000010: 7cd6 d93c 28bf af3c 6020 233b 98da 193d
00000020: 34e7 9cbc 7669 673d a6bc 2dbd 8850 88bc
00000030: 10cb 973c a401 b0bc 201d 3fbc 42ef 313d
00000040: 92dd 2a3d a09a 0dbb 1043 59bc a430 25bd
00000050: f0be febc 2ed2 4f3d 002f ea3a 504b 89bb
00000060: f4b7 053d b833 203d 10a3 68bd d0ec 89bb
00000070: 802e 9fba c640 0bbd 3011 96bb eccd 24bd
00000080: 1ebd 213d 58c1 163c 407c 403b 285e 073c
00000090: 88fc 76bc a87c 5abd 982b 13bc 00c9 5cba
000000a0: bc77 6bbd 7cfc 1d3d eaa9 7fbd 34ae 263d
000000b0: 88c7 91bc 58ac 08bd 42bb 013d 4c6e 233d
000000c0: 9ef6 79bd 8c2d cebc c03f 7dbd 0036 a93a
000000d0: 224b 42bd a8d1 1abd 4c40 1a3d 1a48 0a3d
000000e0: 604d 843c d014 653c a085 eebc 0412 edbc
000000f0: f089 94bb 9897 753c 381f e93c 408a 73bd
00000100: acdf 01bd 78b5 9c3c fcd5 ee3c f4ca 733d
00000110: aca5 b8bc 9633 343d 009f ed3c feed 03bd
00000120: 906b fdbc 224b 2b3d e037 afbc 3647 38bd
00000130: 944c b43c 10af e2bb ac9e 763d 465a 39bd
00000140: fc9c 07bd 10ed 06bd 58b9 24bc c6c3 09bd
00000150: 08f8 5e3d 00d4 3b3b 1c9a e73c 9c64 afbc
00000160: d809 743d b072 083c ea8a 55bd 7032 e2bb
00000170: 343f 303d 74e8 a2bc d0ca 9dbc 981e 6fbc
00000180: 42c0 703d 2089 54bb f099 dc3b 289e d53c
00000190: 5a32 71bd 10fd d2bb 62cb 303d 804b ef3a
000001a0: 606a 38bb 80f3 0c3d d27d 5ebd 7021 b4bc
000001b0: f447 91bc 7ca3 3f3d b470 36bd 208b 7bbc
000001c0: fc6a 88bc 7029 3f3d 226f 563d d0ff c83c
000001d0: 0a9c 10bd d4f3 6f3d a0bc 473d a40f f2bc
000001e0: 508c ae3c e2b2 513d f05e febc f0ea 9ebc
000001f0: acfd 203d 50cd a6bc 0c76 123d ac58 c33c
00000200: f810 653d 9048 e4bc e00a 52bc 00d5 683d
00000210: 5020 1f3d c051 963b b400 52bd 58d0 293d
00000220: c0c1 be3b 04f2 55bd b86c 59bd 4e1a 37bd
00000230: d837 913c 3208 303d e0fe ecbc 2058 133d
00000240: 1e31 373d fa73 2b3d 3a01 7cbd 02f5 783d
00000250: 2c80 55bd a8b3 c6bc 68cf 57bc 6a63 71bd
00000260: 003e 9dbb 8067 4a3a 9035 c8bc 2c58 8f3c
00000270: b48d 00bd b042 5abc 3085 ddbc f6e6 503d
00000280: 8896 90bc 2c7d 99bc a81c 4abd 20e1 b7bb
00000290: 003e 08b9 1ae1 2dbd c2be 25bd f639 49bd
000002a0: 7494 60bd 1081 e3bc d432 0cbd d8e6 4fbc
000002b0: 3823 5a3d f4a6 9e3c 00f5 80bc daee 683d
000002c0: 6818 48bc c41c bb3c 3aa0 663d b0c8 aa3c
000002d0: 7e17 373d d06b 48bd a00e 6c3b 66dd 61bd
000002e0: a0da 5e3d e4c5 743d 0e47 08bd 308b 523c
000002f0: 9489 96bc e08d 13bd 5ebb 56bd 5072 37bc
00000300: 20e4 a13b 0ab6 653d 70f5 dbbb 8091 37bd
00000310: da24 3ebd 60bf 14bc 129e 553d d4bf 76bd
00000320: 9087 09bc 8cc1 043d 9407 63bd 96e0 54bd
00000330: 8c45 2cbd 5ccf ee3c b0d0 853b 0078 dab9
00000340: a070 7e3c 2e29 743d b0d7 4dbc 805e 173c
00000350: 7c75 e9bc bcd7 d6bc 1cf1 433d 6aa4 17bd
00000360: e0f1 07bb b000 8ebc bced 39bd acf3 0abd
00000370: 840a f7bc c4c4 0e3d f05f 193d 48e7 aa3c
00000380: 2099 21bd f061 f13b c035 dbba ec1d 673d
00000390: 6603 213d 3c8d e4bc a8dc 563d 40bc 07bb
000003a0: a8e8 1f3d a059 e43b d4c3 59bd ac6c 5cbd
000003b0: a829 1e3d 2853 633c 38d0 d63c cada 263d
000003c0: 948e dcbc c63e 3ebd 56ed 4b3d 8ce0 f3bc
000003d0: ae50 773d ea6e 4cbd 9c48 dfbc 9468 1b3d
000003e0: 8c36 ccbc d0ee a6bb a281 26bd d050 9bbb
000003f0: ecb9 5a3d 4a9c 1e3d a0af 9d3b d041 95bc
0.0076822564 -0.03462944 -0.018257946 -0.02346529 0.026591532 0.021453455 0.0024891123 0.037561983
-0.019153215 0.05649706 -0.042416237 -0.016639963 0.018529445 -0.021485157 -0.011664659 0.043441065
0.041715212 -0.0021607056 -0.013260618 -0.04032959 -0.031096905 0.050737552 0.001786679 -0.004189886
0.032646134 0.039111823 -0.056796134 -0.0042091385 -0.0012144595 -0.03399732 -0.0045796856 -0.040235445
0.039486997 0.00920137 0.0029370934 0.008262195 -0.015074857 -0.053341538 -0.0089825615 -0.00084222853
-0.057487234 0.038570866 -0.062417902 0.040693477 -0.01779534 -0.033367485 0.031672724 0.03990011
-0.061026208 -0.025168203 -0.061828375 0.001290977 -0.047434933 -0.0377976 0.037658975 0.033760168
0.016150177 0.013982013 -0.029116452 -0.028939255 -0.004533045 0.014989756 0.02845727 -0.059458017
-0.03170745 0.0191295 0.02915477 0.059519723 -0.022539936 0.04399451 0.029006481 -0.03220939
-0.030935079 0.0418197 -0.021388948 -0.044989787 0.022009172 -0.0069178417 0.060209915 -0.045252107
-0.033108696 -0.032940924 -0.010053955 -0.03363397 0.05443576 0.0028660297 0.028271727 -0.021410279
0.0595797 0.008328125 -0.052134432 -0.0069029853 0.043029025 -0.019886233 -0.019261748 -0.014594696
0.0587771 -0.0032430366 0.006732218 0.026076391 -0.05888591 -0.006438859 0.04316271 0.0018256754
-0.0028139576 0.034411907 -0.05431921 -0.0219886 -0.017734505 0.04678677 -0.044541076 -0.015352994
-0.016652577 0.046670377 0.05235208 0.024536043 -0.03530506 0.058582142 0.04876387 -0.029548474
0.02130714 0.051195987 -0.03105113 -0.019399136 0.03930442 -0.020361573 0.03575711 0.023845993
0.055924386 -0.027866632 -0.012819976 0.056843758 0.038849175 0.004587382 -0.0512702 0.041458458
0.0058214366 -0.052232757 -0.053082198 -0.04470282 0.017726824 0.042976566 -0.028930128 0.035972714
0.044724576 0.04185865 -0.061524607 0.060780533 -0.052124187 -0.024255589 -0.013172008 -0.0589327
-0.0047986507 0.0007721111 -0.024439603 0.017498098 -0.03138514 -0.013321564 -0.027041048 0.05100151
-0.017649904 -0.018736444 -0.049343735 -0.005611554 -0.00012993068 -0.042451 -0.040465124 -0.04912754
-0.054829076 -0.027771503 -0.03422816 -0.012689315 0.053256243 0.019366719 -0.015741825 0.05686841
-0.01221285 0.022840865 0.056305148 0.020847648 0.04470014 -0.048930943 0.003601946 -0.055142783
0.054407716 0.059759036 -0.033270888 0.012850568 -0.01837615 -0.036023974 -0.05242478 -0.011196688
0.0049405247 0.05608181 -0.006712608 -0.044816494 -0.046421863 -0.0090788305 0.0521527 -0.060241535
-0.008394137 0.032411143 -0.05542715 -0.051971994 -0.042058513 0.029151611 0.0040837154 -0.00041669607
0.015529782 0.059609585 -0.012563631 0.009238839 -0.028498404 -0.026225917 0.04783736 -0.03702203
-0.0020743534 -0.017334312 -0.045392737 -0.03392379 -0.030156381 0.03485562 0.03744501 0.020862237
-0.039452672 0.0073664114 -0.0016724393 0.05642502 0.03930988 -0.027899377 0.052456528 -0.002071157
0.039040238 0.006968692 -0.053165272 -0.053814575 0.038613945 0.013874806 0.026222333 0.040735997
-0.026923455 -0.046446584 0.049786888 -0.029770158 0.060379677 -0.049910463 -0.027256303 0.03794153
-0.024928354 -0.0050943866 -0.04065097 -0.004739858 0.053399965 0.038723268 0.004812196 -0.018219858

query_bias f4 [64]
00000000: 6c2e c93c e482 a43c 3088 8dbc e693 5a3d
00000010: 78a5 6e3c 1297 00bd 7012 d83b 149c 19bd
00000020: 5042 24bd d69e 5dbd 10ce a03c 1e45 673d
00000030: 4c46 913c 005d 493b 2036 4abb 2e86 44bd
00000040: b05d 98bb f457 c4bc 58b8 74bd f4f6 dc3c
00000050: 20a2 6a3b 0093 093b bce7 203d fa86 16bd
00000060: d090 68bc fe35 7a3d 2086 f93b 2222 38bd
00000070: 6670 233d 0015 7c3c ecf2 d4bc f081 fabc
00000080: f069 dd3b 00c7 623c d82c be3c f67e 293d
00000090: 0078 1c39 7074 d6bc d07c 243d 4c38 dd3c
000000a0: 6a7f 593d 2e62 343d fcdf 0abd 9298 12bd
000000b0: 3216 45bd 0cce d13c caba 09bd 4e87 5cbd
000000c0: d8cf c33c 74f9 5ebd aec0 023d ee2d 563d
000000d0: cc5a 563d f0f8 debc 02f5 5cbd 6e7c 123d
000000e0: c619 1cbd b4dc bfbc 00b1 533d 10c8 f33c
000000f0: 602f 353b 505a e63c f09f 5e3c 8094 93bc
0.024558268 0.020081945 -0.017276853 0.053363703 0.014565818 -0.031394072 0.006593995 -0.037502363
-0.040102303 -0.054106556 0.019629508 0.0564624 0.017733715 0.0030725598 -0.0030855015 -0.047979526
-0.0046498403 -0.02396772 -0.059746116 0.026973225 0.00358022 0.002099216 0.0392835 -0.036749817
-0.014194682 0.061086647 0.007614866 -0.044954427 0.039902113 0.015385866 -0.02599474 -0.030579537
0.0067570135 0.013841391 0.023214743 0.041380845 0.00014922023 -0.026178569 0.040158093 0.027004384
0.053100027 0.044038944 -0.033905014 -0.035790034 -0.04811687 0.025610946 -0.0336254 -0.053839974
0.023902819 -0.054437116 0.031922035 0.052289896 0.052332684 -0.027218312 -0.053944595 0.035763197
-0.038110517 -0.02342067 0.051682472 0.029758483 0.0027646646 0.028119236 0.013587937 -0.018015146

key_bias f4 [64]
00000000: c2b3 45bd fce2 3f3d d05f 2b3c aacb 303d
00000010: 0418 653d 5a95 253d b273 533d 74e2 95bc
00000020: e453 d9bc 48ad 453d ba81 353d 007d e2ba
00000030: 604b 1b3b e0ff 4b3b 3823 263d bccf ccbc
00000040: 1057 7bbc a818 90bc c84a 783c c860 5cbc
00000050: e8a6 693c 364f 6cbd 6ca1 48bd c2f6 7cbd
00000060: 6850 85bc f4b3 913c 3883 08bc f095 5ebd
00000070: ecc3 bc3c 563b 69bd 6440 e2bc 4a97 403d
00000080: 2e92 183d 5a40 303d 4ac9 22bd b810 43bd
00000090: ecab 1f3d 60de a03c cc9e 20bd c0e2 dabc
000000a0: 5050 27bc 30e5 61bd b65b 5cbd d870 0ebc
000000b0: a831 6ebd f220 07bd 0067 3cbd 843b d03c
000000c0: e26e 68bd f869 183d 08f9 573d 2ed9 613d
000000d0: 0063 a93a 60e2 27bc a081 1b3d 887f 55bd
000000e0: 3c6e 633d 9adb 1bbd 5cca ee3c 9c8d e53c
000000f0: a83a 2a3d f289 6bbd aa10 243d 1071 60bd
-0.048267134 0.04684733 0.010459855 0.04316298 0.055931106 0.040425636 0.051624008 -0.018296458
-0.02652926 0.048260957 0.04431317 -0.0017279685 0.002369605 0.0031127855 0.04056093 -0.0250014
-0.015340582 -0.017589882 0.015154548 -0.013450809 0.014260985 -0.05769273 -0.04898207 -0.061758764
-0.016273692 0.017786004 -0.008332066 -0.05434221 0.023042642 -0.056941353 -0.027618594 0.04701928
0.037248783 0.04303012 -0.039742745 -0.047623366 0.038982317 0.019637287 -0.03921394 -0.026719451
-0.010212019 -0.05515021 -0.0537984 -0.008693896 -0.058152825 -0.032990403 -0.045996666 0.025419004
-0.05674637 0.037210435 0.05272773 0.05513876 0.0012923181 -0.010246843 0.037965417 -0.052123576
0.05552505 -0.038051225 0.029149227 0.028021626 0.041559845 -0.0575046 0.040054955 -0.054795325

value_bias f4 [64]
00000000: 447f b9bc 1084 6ebd 94a1 943c 3c1e eabc
00000010: 100c fabb 12b8 213d d8b2 523c 184f 593c
00000020: 8cd1 c6bc 001e 79b9 f2ce 2d3d b04f 0c3d
00000030: 0058 aabb 5228 65bd 94c8 c93c c088 55bc
00000040: 80f7 6ebc d0c8 a43b ec4f a13c c4f5 c2bc
00000050: cc4e f4bc 444d d2bc 0404 50bd 465d 4abd
00000060: 485b 633c 9c2c 0bbd 5ec8 0dbd 20a4 83bb
00000070: a890 70bd 067e 6bbd a670 6ebd 5877 5dbc
00000080: 4801 6e3c 50ae 013c 60a4 0c3d 3080 213c
00000090: d4a4 f93c 287e 283c 9480 c0bc ec27 72bd
000000a0: 3087 54bd 208c 68bd b43b d7bc 82d2 31bd
000000b0: 244b f83c 16c9 273d c2d8 0bbd bca1 303d
000000c0: 86f3 5bbd 7c59 d4bc 10f6 353c 5870 51bd
000000d0: 7cdb 8d3c d44a 71bd 005b 323a 6443 553d
000000e0: 0cab 51bd 1e47 32bd 5025 833c 2c83 c6bc
000000f0: 98dc 3c3d 0a41 0b3d 6407 293d 401a d13b
-0.022643693 -0.058231413 0.018143453 -0.02857887 -0.0076308325 0.039482184 0.0128600225 0.013263486
-0.024269842 -0.00023757666 0.042433687 0.034255683 -0.0051984787 -0.055946656 0.024631776 -0.013033092
-0.014585376 0.0050288215 0.01969143 -0.02379883 -0.02982273 -0.025671609 -0.05078508 -0.04940536
0.013876744 -0.03397809 -0.034614913 -0.004017368 -0.058731705 -0.057493232 -0.0582129 -0.013517223
0.014526673 0.0079150945 0.034336448 0.009857222 0.030474104 0.010283984 -0.02349881 -0.059120104
-0.051886737 -0.05677426 -0.026273586 -0.043413647 0.030309267 0.040963255 -0.034142263 0.043122992
-0.05369904 -0.025921576 0.011106029 -0.05113253 0.017316572 -0.058909252 0.0006803721 0.05206622
-0.051188514 -0.043524854 0.016009003 -0.02423247 0.046108812 0.033997573 0.041266814 0.006381303

output_weight f4 [256, 64]
00000000: daca c33d aa6e cebd 08ad 06bd 98c0 3f3d
00000010: 78a9 863d aa54 983d e894 bfbc 6c28 f03d
00000020: 80c1 0abd f8ec 6e3d f261 c53d 085c 193d
00000030: f618 c93d 6cf1 a23d c852 093d 8044 d2bd
00000040: d6ba f6bd 98d7 d33d b8a2 6cbd f4ee 263d
00000050: 5e2d ba3d 109d f23c 7877 ad3c f834 e93c
00000060: f40e cbbd dac2 ccbd a89e d7bc 3cc2 fe3d
00000070: 28fd f93c 2e9c d23d aaae 9fbd 9630 b9bd
00000080: 1419 02bd fc47 743d a482 6abd 4022 e83b
00000090: 1489 2a3d 922a d13d 340f 073d 606e adbd
000000a0: ea83 ed3d 007c a33c ce43 e83d 408d 5dbd
000000b0: f044 2ebc 60a8 183c dcd0 a4bd d0b9 90bc
000000c0: fc84 4a3d 0078 1d3b ae1c 8cbd f079 df3d
000000d0: a0cc f23d b6a1 84bd f0d9 bf3c 7cd8 0c3d
000000e0: cc59 6dbd ec6a dbbd b8f6 c7bd aa02 ed3d
000000f0: cc60 0d3d 005d 183a a666 e83d baa1 863d
00000100: 0217 e4bd f8fc a23c fe7f 9bbd 90de e6bd
00000110: 58f0 d5bd 80e6 e7bc 9cb7 483d 208a 323d
00000120: c0ba cc3c c298 81bd 50fa e73d 3871 b4bc
00000130: 0011 643b 449a 2b3d da30 f7bd da87 97bd
00000140: e26b f43d f481 02bd 70e2 cf3c 8ab5 c73d
00000150: 006c 21b9 d2a2 ac3d 0c8a 7bbd 20a5 fe3d
00000160: aabb dfbd a03c b8bb 3042 413c 7267 ec3d
00000170: 248a 20bd f0cc 4c3d 10bc ed3c 30d5 e03d
00000180: 54e3 5c3d fe92 e1bd 1094 a93d f2c9 eabd
00000190: d617 f33d 0043 81bd 1041 b9bc 34c8 f4bd
000001a0: 04dc ad3d ac82 c93d 1852 debc 4ce3 71bd
000001b0: d893 f03c f0de 97bc 9083 6a3c 4282 9f3d
000001c0: c838 f7bd 52e1 843d 64d8 d43d 208b d3bd
000001d0: acc0 573d c0ba 1cbb 74f7 ccbd 7e09 cf3d
000001e0: a0d4 fa3c 7c87 2f3d 8a4e f9bd 90de 333c
000001f0: e85d a6bc 00ee a13c a055 bf3d 24b7 91bd
00000200: a238 91bd 60ed ee3c 8e1c c43d 408e bbbc
00000210: f03c bbbd f002 173d d8f5 f43c 7aeb f13d
00000220: 606d 813b 60c7 e4bb e63b b33d 8c5b 4a3d
00000230: 1e74 bf3d b024 d1bd 32d2 953d 88f8 d43c
00000240: 3082 0c3d a8c3 b63c d015 d7bc 4e2e e3bd
00000250: 7c14 3cbd c207 8f3d 94fb d93d 5069 e9bd
00000260: 16a4 cfbd 608b 0abd d845 b13d 10f3 20bc
00000270: a671 e8bd 404a a93b a882 d0bd 605f 823d
00000280: 3054 d2bc 0add dcbd 800d 073b dc51 14bd
00000290: facd eebd 9047 903d 203a d53d 9650 993d
000002a0: 5689 b0bd d0ce f0bd 467f f33d 8cd3 c33d
000002b0: 0037 a4bb f099 2cbd a05b debb 209c b8bd
000002c0: ac19 6dbd f47f 8dbd 0a97 d03d 1ad6 b4bd
000002d0: c03c b5bd 2070 213c 0009 56ba 9400 cebd
000002e0: 8c08 af3d 8e80 ccbd 6893 a33d 782d b03d
000002f0: 3a7e c7bd 58c7 bebc ee75 d33d a88f 033d
00000300: 06f8 ebbd c0ce e23c 76dc a73d 4431 68bd
00000310: f864 9f3d fadf 983d 1428 6bbd 2843 5b3d
00000320: 405c ba3c a048 0dbd 626d d1bd a2d1 a13d
00000330: 448a 5ebd 4cb1 1b3d 62b2 c7bd 9e7e ee3d
00000340: d0a2 823d c859 2a3d aa32 f6bd fe35 a83d
00000350: a437 d0bd 6489 69bd e8ac 1ebd a055 82bb
00000360: 6871 683d d404 a13d 10b3 483d 0807 753d
00000370: 20f0 c23c 200b 26bc fe43 d63d a0f9 e2bd
00000380: c07b c8bb fa51 a93d f6ac cfbd 90b9 fdbc
00000390: 4888 7cbd 1c22 073d 267a e23d 6041 fb3d
000003a0: 5802 d1bc c009 45bd e0ac 5a3c 46ab f9bd
000003b0: d07a b03c eaaa afbd 144c 64bd 6cb2 cd3d
000003c0: 10ab e93c 2ad5 e0bd 6450 363d 8080 a33b
000003d0: 601b c73d 8c77 7fbd d87b 8c3d d25d bcbd
000003e0: 283f 39bd cef4 9abd b076 a3bd b4f1 dbbd
000003f0: 34b4 6e3d 8c8e 79bd 0e05 9dbd 6606 f43d
0.09560175 -0.10079701 -0.03287986 0.04681453 0.06575292 0.074380234 -0.023386434 0.1172646
-0.033875942 0.05833146 0.09637822 0.037441283 0.09819214 0.07956204 0.033526212 -0.102669716
-0.12047355 0.103438556 -0.05777237 0.040755227 0.09090684 0.029615909 0.021175131 0.02846764
-0.099149615 -0.099981025 -0.02632077 0.12439391 0.030516222 0.10283695 -0.077969864 -0.0904247
-0.031762198 0.059638962 -0.057253495 0.007084161 0.041634634 0.10213198 0.032973483 -0.08468318
0.11597426 0.019956589 0.11341058 -0.054089785 -0.010636553 0.0093174875 -0.08047649 -0.017666727
0.04944323 0.0024027824 -0.06841408 0.109119296 0.11855435 -0.064761564 0.02341935 0.034386143
-0.057946965 -0.10713753 -0.09763855 0.11572774 0.03451614 0.0005812198 0.11347704 0.06573816
-0.11137201 0.019896016 -0.07592772 -0.11272919 -0.104462326 -0.028308153 0.04900323 0.043588758
0.024991393 -0.06327964 0.1132704 -0.022026643 0.0034800172 0.041895166 -0.120698646 -0.073989585
0.119346395 -0.031862214 0.025376529 0.09751423 -0.0001539439 0.08429493 -0.06141095 0.12433839
-0.10924466 -0.0056224614 0.0117955655 0.11543168 -0.03919424 0.05000013 0.02902034 0.10978162
0.053927734 -0.11014365 0.08280194 -0.11464299 0.11869781 -0.06311607 -0.022614032 -0.11952248
0.0848923 0.09839377 -0.027138755 -0.059054658 0.029367372 -0.018538922 0.0143135935 0.077885166
-0.12071377 0.06488289 0.10392836 -0.1032927 0.05267398 -0.0023915023 -0.100081354 0.10109232
0.030618966 0.042853817 -0.12173183 0.010978356 -0.02030845 0.019766808 0.093425035 -0.071150094
-0.0709088 0.029165924 0.09575759 -0.022894979 -0.09142482 0.036868036 0.029902384 0.11812492
0.003949806 -0.006981775 0.08751659 0.049403712 0.093483195 -0.10212076 0.07315482 0.025997415
0.034303844 0.022310093 -0.026255518 -0.11092816 -0.045917973 0.069839016 0.10643688 -0.1139704
-0.10138719 -0.033824325 0.086559 -0.009823576 -0.11349802 0.005166322 -0.10181171 0.063658476
-0.02567491 -0.10784347 0.0020607412 -0.03621088 -0.11660381 0.070448995 0.10411477 0.07486074
-0.08619945 -0.11758196 0.1188951 0.09561834 -0.0050114393 -0.042138994 -0.006785825 -0.090141535
-0.05788581 -0.06909171 0.101850584 -0.08829899 -0.08849478 0.009853393 -0.0008164793 -0.10058704
0.08546552 -0.09985457 0.079871 0.086024225 -0.09740873 -0.023288414 0.10325228 0.032119423
-0.11521916 0.027686477 0.081963465 -0.05668761 0.0778293 0.07464595 -0.05741127 0.053530842
0.022749066 -0.03449309 -0.10225941 0.079013124 -0.05433108 0.03801088 -0.09750821 0.11645244
0.0637871 0.04158953 -0.12021382 0.08213423 -0.101668626 -0.05701579 -0.038739115 -0.0039774925
0.056748778 0.07862249 0.048998892 0.05982116 0.023796141 -0.010134488 0.10462187 -0.110827684
-0.006118268 0.08267589 -0.101404116 -0.030972272 -0.061653405 0.032991514 0.11058454 0.12268329
-0.025513813 -0.048105 0.013346881 -0.12190871 0.021542937 -0.08577521 -0.055736616 0.10043797
0.028523952 -0.10978158 0.04451026 0.0049896836 0.09722018 -0.06236987 0.06859559 -0.09197582
-0.045226246 -0.07566224 -0.07981622 -0.107394606 0.058277324 -0.06092696 -0.0766698 0.11915283

output_bias f4 [256]
00000000: c091 e23c 5e69 90bd b42b 43bd 58c3 493d
00000010: 5054 a6bd bc12 0bbd 8086 0e3c c872 be3c
00000020: 38df f9bd 62c0 b33d 20b1 083d 9243 d83d
00000030: 40dd 95bb cc55 1d3d dc6a d93d 30b2 5f3c
00000040: 9cfb 58bd 60c0 30bd c8ea c8bd 667b b53d
00000050: 9e3f e7bd 88aa 3e3d b8ce 1fbd 382d 523d
00000060: 24c7 45bd 18fd e1bd 5499 1fbd 1a78 f13d
00000070: 785f b6bd 00a7 66bb 425b 813d f4a3 32bd
00000080: 202d edbd a2e2 cf3d a832 c4bc c085 573b
00000090: 9052 63bd 6045 66bd 7803 85bc c05f aa3d
000000a0: 3848 083d f6c9 9bbd 68a2 c63c e25d cf3d
000000b0: 4a36 c43d 28c1 c23d 8c25 3b3d 04cf c13d
000000c0: f831 403d 68a0 40bd 900e b93c 8020 ae3c
000000d0: 24ad 97bd 563b b73d c055 eb3b b29e 91bd
000000e0: 88d7 903d 2812 a0bc c8ea d2bc 4295 b23d
000000f0: a47c 3a3d 7c89 f4bd 38bc 3ebd 627d b03d
00000100: 709f 7bbc 563c ef3d eac4 e23d 88e5 d2bd
00000110: 6e24 acbd 0053 ed3c 8aba b93d c008 823d
00000120: 4095 c13c 6248 843d 7ee3 f33d 44d6 0fbd
00000130: 2e19 f73d b41e 00bd 2075 9e3b 605b 1cbc
00000140: 80c6 e63a 4051 253c f495 b9bd 0043 d83d
00000150: 620c c0bd 92dd ddbd d23c c13d fc91 523d
00000160: 087f 37bd 86e0 f83d ecc0 e7bd 8c61 d63d
00000170: 869d 83bd e8e4 e7bc 2c4f f73d a470 103d
00000180: 806d 4bbd e4f9 15bd e424 1b3d 4056 ca3d
00000190: 9068 603c d098 cb3d 428e e0bd c0a8 a53b
000001a0: 944f 853d 686f 903c 0245 a93d 4036 d93c
000001b0: 6aff efbd 3073 56bd 9035 f1bd 3c22 98bd
000001c0: ba4a b03d c493 ecbd 8071 ee3d ac0d c03d
000001d0: 78b8 90bd d0ca fcbd 40ef a43c 5ee9 c73d
000001e0: 64f5 8d3d 387e 3abd 7abf cfbd 9c44 663d
000001f0: 4c6b c73d e48c 41bd 502b 13bc be5e 9dbd
00000200: dc0c c83d 5aab 8d3d ea64 d4bd 6a07 923d
00000210: d400 ccbd 8a0d 90bd 6012 afbd c8b9 c43d
00000220: 3075 b7bd 7881 23bd bc28 d3bd 1230 bf3d
00000230: aedd e83d b0a3 7e3d 56ba 93bd f09c 1bbd
00000240: 8afd d33d 28e2 803d d4b5 81bd 20b2 3dbd
00000250: 72da d53d ea38 9b3d 38fa 18bd 8c95 bf3d
00000260: f458 273d ec85 adbd 004f 84ba b47d cd3d
00000270: 9e5f ba3d a8f2 0c3d 90f7 fa3c 2cb1 733d
00000280: 16c1 af3d a00f b2bc 80da d2bd a426 c03d
00000290: 380c 02bd 40e6 d53b 3852 58bd 90ac 99bd
000002a0: 1053 ff3d 9e85 f8bd 1e4b 80bd c069 633c
000002b0: 34de 98bd 3219 fc3d 986f 98bc 7888 5f3d
000002c0: ec92 89bd 3c0b e13d f496 dd3d 9016 74bc
000002d0: 80fe 783d d0d2 edbc 6cc8 78bd 506d fabc
000002e0: aa7f cf3d 06d6 d53d bc0b 86bd 8890 7dbd
000002f0: 60fc b0bd 0052 14bb 008f af3a 4644 8f3d
00000300: 5c73 703d 40eb cb3d 1802 49bd c8e7 f33d
00000310: 7c06 a5bd 9ccc da3d 5ad5 b93d a4e6 55bd
00000320: 161b b83d fcf0 5b3d b8d8 dcbc 70f0 f9bd
00000330: 0cee 5cbd e633 c53d d832 acbd e822 0ebd
00000340: 3002 473c 0012 8dba a83e 51bd 0a8a f13d
00000350: 24cb 5a3d e893 29bd 1edc fbbd d6ec e5bd
00000360: e81f e03d 9038 93bd de3b d2bd 605b 373d
00000370: 1093 6fbc 74b1 25bd ce89 c6bd e055 1c3c
00000380: dc6e 8b3d 1023 d6bd 40c5 9cbd c8b1 1cbd
00000390: bcd1 4cbd 7637 99bd 462c e53d 04df 1e3d
000003a0: 5c7b b9bd 845f 32bd 0626 ee3d ace3 d83d
000003b0: 92e4 87bd 0046 82bd 2886 bcbc 4e31 9fbd
000003c0: b280 97bd aa34 833d cc6d f33d 90b9 db3d
000003d0: 1e80 b0bd a674 e1bd bc4f f93d 5050 eebc
000003e0: a8fb 9dbc 00c0 8cbb 1065 d2bd d049 8d3d
000003f0: aa2d ff3d 5087 ac3d a26d ac3d f206 e83d
0.02765739 -0.07051347 -0.0476491 0.04925856 -0.0812155 -0.033953413 0.0086990595 0.023248091
-0.12200779 0.087769285 0.033372045 0.10559763 -0.004573494 0.0384119 0.10616085 0.013653323
-0.05297433 -0.043152213 -0.09810406 0.08861427 -0.11291431 0.04654935 -0.0390155 0.051312655
-0.04828562 -0.11034602 -0.038964584 0.11790486 -0.08904928 -0.0035194755 0.06316234 -0.04361339
-0.115808725 0.10150649 -0.023949936 0.0032886118 -0.05549866 -0.056218505 -0.016237006 0.08319044
0.033272 -0.0760688 0.024247363 0.101253286 0.09580667 0.09509498 0.045690104 0.09463313
0.046922654 -0.047027975 0.022589952 0.021255732 -0.07406071 0.08946864 0.007181853 -0.07110347
0.07072359 -0.019539908 -0.025746718 0.08719875 0.045529023 -0.119402856 -0.04656622 0.08617665
-0.015357837 0.1168143 0.110727146 -0.10297686 -0.08405386 0.028970242 0.09068783 0.06349325
0.023630738 0.064591184 0.11908625 -0.03511645 0.120653495 -0.03127928 0.0048357397 -0.00954327
0.0017606765 0.010090172 -0.090618044 0.10559654 -0.09377362 -0.10833277 0.09435429 0.051408753
-0.04479888 0.121521994 -0.11316094 0.10467824 -0.064265296 -0.028307393 0.12075648 0.035263672
-0.049664974 -0.036615267 0.03787698 0.09879732 0.013696805 0.09941256 -0.109646335 0.005055517
0.06509319 0.017631248 0.08265115 0.026515126 -0.11718638 -0.052355945 -0.11777794 -0.07428405
0.08608003 -0.115516216 0.11642742 0.09377608 -0.070664346 -0.12343371 0.020133615 0.09761308
0.0693157 -0.045530528 -0.10143943 0.056217775 0.09737262 -0.047253504 -0.0089824945 -0.07684086
0.09768078 0.06917448 -0.1037081 0.0713032 -0.099610955 -0.07033832 -0.08548427 0.096057475
-0.089578986 -0.039918393 -0.10310504 0.093353406 0.11370407 0.062167823 -0.07213275 -0.037991464
0.10351093 0.06293136 -0.06333509 -0.04631245 0.10442056 0.07579215 -0.037348002 0.09354696
0.040856317 -0.08472809 -0.0010094345 0.100337416 0.09100269 0.034411103 0.030635625 0.059495136
0.0858175 -0.021735966 -0.10295582 0.0938237 -0.031749934 0.006527692 -0.052812785 -0.07503617
0.12467015 -0.121348605 -0.062643275 0.013880193 -0.07464257 0.12309493 -0.0186079 0.054573506
-0.06717476 0.10988471 0.10819808 -0.014897957 0.060789585 -0.029031187 -0.060738012 -0.030569702
0.10131772 0.10441212 -0.06545207 -0.061905414 -0.08641887 -0.0022631884 0.0013394058 0.06995444
0.058703765 0.0995698 -0.049074262 0.11909443 -0.080578774 0.106835574 0.09073897 -0.05222191
0.08989541 0.053696617 -0.026958808 -0.12204063 -0.053937957 0.096290395 -0.08408135 -0.034701258
0.012146518 -0.0010762811 -0.051085144 0.11793907 0.053416386 -0.04140082 -0.122978434 -0.112268135
0.10943586 -0.07188523 -0.10265325 0.044764876 -0.014622465 -0.040452436 -0.09694253 0.009541959
0.06808254 -0.104559064 -0.0765481 -0.038255483 -0.050004706 -0.074812815 0.11190085 0.038786903
-0.09056732 -0.043548122 0.11628346 0.105903 -0.06635393 -0.06361008 -0.02301319 -0.07773076
-0.073975936 0.06406529 0.118861765 0.107287526 -0.086181864 -0.11008577 0.12173411 -0.02909103
-0.019285038 -0.004295349 -0.102731824 0.06898844 0.124598816 0.08424246 0.08419348 0.1132945

expected_output f4 [2, 10, 256]
00000000: d7ec 12be 211d 6cbe 5c0d 82be eac3 30be
00000010: afe7 943e b46c 40be f56f 1c3e 768a 2fbe
00000020: 3dee a7bd 1645 b5bd 5a3c c6be 7260 bd3d
00000030: ccc5 4f3e ed01 77be 187c cc3d a02c 273f
00000040: ac4c cf3e d0ea 86be 36e0 c3be 9e3b c23d
00000050: 4030 38be c339 a93e cf8f 96bd 0c34 a63e
00000060: 3ea0 1abd a99d c3be 0518 083e 5882 e83d
00000070: dc2a 96be a2bb 5fbe d0ae 763d ad8b 0cbe
00000080: 179b 0cbe 6a8e 153e be49 c3be 94e1 3b3d
00000090: ba8b a83d c602 6dbd 3151 743e 0412 d8bd
000000a0: 09aa f7be ace8 22be 00b9 8b3b ba10 af3e
000000b0: 0646 b8bd aa91 d63d 0b3b 393e 2ae2 37be
000000c0: 465d 9e3e 68ed 0abe 19b1 233e 3aca 2ebe
000000d0: 84e1 0fbe 508c 20bc 86b0 1fbe e431 9bbe
000000e0: 7c56 9e3c f82d b0be 6871 e43c 4cb0 8b3d
000000f0: f855 2a3c 9dc2 a9be b902 4f3e 4965 5c3e
00000100: 3312 0c3e b6fb 643e 6490 9a3d d4e8 f53d
00000110: 31a0 84be cae4 953e 40ac c3bc c20d 9f3e
00000120: 3c8c d3bd 10f8 6b3d 1825 163e f6c6 6abe
00000130: 6e57 c93e ca6a db3d 5346 0c3e a08b c63c
00000140: 8c3b 833e ca1b 81bd 84c5 47bd 0848 523e
00000150: f025 6abe 2bb6 6dbe 1259 83bd 54b8 123e
00000160: d2ef aebe 2a47 8c3e 764e 9cbe dcd9 04bd
00000170: 7339 273e 379a 053d 921a 073e 0bb8 2b3e
00000180: db43 193e 39ab cebd bf2d 3bbe 6c7d 233e
00000190: 4a05 383e 953b c43d a487 83be cc41 8bbe
000001a0: d691 033f 2a30 cf3e f6c3 1e3e 02bd 80be
000001b0: 5802 493d adab 163e 5e3d df3d a3db debd
000001c0: 3eab c63e 4222 553e aa93 0d3e eae4 eb3d
000001d0: 16b8 15be cbcd f4be 4ce9 813e 0729 0bbe
000001e0: a892 9ebe 08ac ce3d b6b3 893e 52e7 86be
000001f0: 65e3 cd3e 56d7 f13d e6de c2be 3adb ad3e
00000200: 21c9 023e dfb8 533e 6b61 0e3e 40df 59bd
00000210: 8a1d ebbd a4fa 3bbd 8bb7 82be 4ab7 e03d
00000220: 5cc5 acbe 9698 5c3e 137a 8abe 5072 443e
00000230: f958 01be 6545 173e 1f2f 82be d021 e23d
00000240: cee7 e0be 2893 a1be 3857 80be 47e6 a23e
00000250: 0be4 af3d eeef 203e a6ca 723e d822 b3bc
00000260: 7015 413c 8688 28bd bbc6 8b3e 22fd 76be
00000270: 4643 f5bd 7f51 aa3e 08c4 963d 188a ba3e
00000280: 16ed bd3e d577 e13e 09eb 2fbf cfd7 7c3e
00000290: b7b2 a4be 8d35 2d3e 0072 843b eaa9 56be
000002a0: a812 133e 3e14 b93e 73e8 91bd e688 e23e
000002b0: 2e68 453e c841 85be 2ac7 1ebd a068 d6bd
000002c0: b4e0 abbe b381 ad3d 683f d13d ac42 293e
000002d0: b82c 64be 58e4 8a3c 4d92 e6bd 62c9 ec3d
000002e0: 2e5c 493d ba42 95be b76a 75be a7a1 9ebd
000002f0: 6c29 a1be 1682 e3bd c371 7d3e c853 bfbc
00000300: 1f7f 23be 3d30 a03e 792c 92be 6538 613e
00000310: 2d58 08bd d081 3ebd 18dd c23e cc3e cb3d
00000320: 20c8 4a3e 8a29 a03e d026 243c bc34 9bbe
00000330: c455 04bf bcda c7be 4a6d 50bd a85a 57bd
00000340: d865 f33d 82a5 523d e5a5 b0be c04a 8dba
00000350: 3fd9 44be b2d3 353e eb0d 063e eebd 36be
00000360: 990e 9b3e 2072 0d3b 585e c1bc b8eb 42bd
00000370: ed0d 073e e88e 8dbd b6aa b93e 94f2 ee3d
00000380: 12d3 06bf eebc 88be be4d c9be 0b5c a33e
00000390: 6087 d0bd c356 c3bd 88e3 c23c 1c5d 88bd
000003a0: 6894 06be a8a1 5ebc 62e3 323e 0022 a23b
000003b0: ca5b 443d e95c a83e c7c2 163e 7100 5abe
000003c0: bffa d7bd e1cc 023f 2096 35bd e432 983e
000003d0: b812 b03c 621a 883d 7c6f b23e 3df0 3bbe
000003e0: 9055 4b3d 73b8 f53d a8a9 603e ebfc 133e
000003f0: 4cf3 173e 23af 833e 70f3 9dbb 6835 dc3c
-0.1434816 -0.23057987 -0.25400817 -0.17262235 0.2908301 -0.18791467 0.15277083 -0.17142662
-0.08199737 -0.08851068 -0.3871792 0.09246911 0.20290297 -0.24121828 0.099846065 0.6530247
0.40488183 -0.26351023 -0.38256997 0.09484027 -0.17987156 0.3305188 -0.07351648 0.32461584
-0.037750475 -0.38206223 0.13290413 0.11352986 -0.29329574 -0.2184892 0.060225308 -0.13725157
-0.13731037 0.14605108 -0.38142198 0.045869425 0.08229776 -0.057863973 0.23859097 -0.10550311
-0.48371914 -0.1590907 0.004263997 0.3419245 -0.08997731 0.10477002 0.1808893 -0.17957368
0.30930537 -0.13567126 0.15985526 -0.17069331 -0.14050871 -0.009799078 -0.15594682 -0.303115
0.019328348 -0.3441007 0.027886108 0.06820735 0.010396473 -0.3315629 0.20215882 0.21523012
0.13678817 0.22361645 0.075470716 0.12007299 -0.25903466 0.29276115 -0.023885846 0.31065184
-0.10329482 0.057609618 0.14662588 -0.2292746 0.39324516 0.10713728 0.13698702 0.0242365
0.25631368 -0.063041285 -0.04877235 0.2053529 -0.22866035 -0.23214023 -0.06413473 0.14328128
-0.34167343 0.27398044 -0.3052861 -0.03243433 0.16330509 0.032617774 0.1319373 0.16769426
0.14967291 -0.10091252 -0.1827917 0.15965813 0.17970768 0.09581677 -0.25689423 -0.27198637
0.51394403 0.40466434 0.1550444 -0.25144202 0.0490745 0.14713927 0.10900377 -0.10881736
0.38802522 0.2081385 0.1382586 0.11518271 -0.14621004 -0.47813258 0.25373304 -0.1358987
-0.30971265 0.10091406 0.2689492 -0.26348358 0.4021255 0.1180865 -0.38060683 0.3395632
0.12772037 0.20675991 0.1390435 -0.053191423 -0.114802435 -0.045893326 -0.25530657 0.109724596
-0.33744323 0.21542582 -0.2704626 0.19184232 -0.12631597 0.14772566 -0.25426576 0.110416055
-0.43926853 -0.31557584 -0.25066543 0.31816313 0.085884176 0.15716526 0.23710117 -0.0218672
0.011784896 -0.041145824 0.27300057 -0.2412 -0.11975722 0.33265302 0.07361609 0.36433482
0.37094945 0.44036737 -0.6871801 0.246917 -0.321676 0.16914959 0.00404191 -0.20963255
0.14362586 0.36148256 -0.07124414 0.4424507 0.19278023 -0.2602675 -0.038764156 -0.104691744
-0.33569872 0.08472004 0.10217172 0.1652934 -0.22282684 0.016954586 -0.112583734 0.11561848
0.049160175 -0.2915247 -0.2396649 -0.077456765 -0.31476915 -0.11108796 0.24750428 -0.02335538
-0.15966462 0.31286803 -0.28549555 0.21994169 -0.033287216 -0.046510518 0.38059306 0.09924087
0.19802904 0.31281692 0.010019019 -0.3031367 -0.5169337 -0.3903407 -0.050885476 -0.05257669
0.118846595 0.05142737 -0.34501567 -0.0010779724 -0.19223498 0.17756537 0.13091247 -0.1784589
0.30284575 0.0021582916 -0.023604557 -0.04758808 0.13188906 -0.06912023 0.36263055 0.11667362
-0.5266582 -0.26706642 -0.39317125 0.3190616 -0.10182071 -0.09538033 0.023790136 -0.06658384
-0.1314255 -0.013588347 0.17469552 0.004947901 0.0479391 0.32883385 0.14722739 -0.21289231
-0.10545873 0.5109387 -0.044332623 0.29726326 0.0214933 0.06645657 0.3485068 -0.18353362
0.049642146 0.119980715 0.21939719 0.1445195 0.14838904 0.25719556 -0.00482028 0.026880935
